C:\Users\JIEUN\Desktop\jieun>C:/Users/JIEUN/AppData/Local/Programs/Python/Python39/python.exe c:/Users/JIEUN/Desktop/jieun/230411kimjieun.py
Model: "sequential"
_________________________________________________________________
 Layer (type)                Output Shape              Param #
=================================================================
 reshape (Reshape)           (None, 13, 1, 1)          0

 conv2d (Conv2D)             (None, 13, 1, 16)         160

 max_pooling2d (MaxPooling2D  (None, 6, 1, 16)         0
 )

 conv2d_1 (Conv2D)           (None, 6, 1, 32)          4640

 max_pooling2d_1 (MaxPooling  (None, 3, 1, 32)         0
 2D)

 conv2d_2 (Conv2D)           (None, 3, 1, 64)          18496

 max_pooling2d_2 (MaxPooling  (None, 1, 1, 64)         0
 2D)

 flatten (Flatten)           (None, 64)                0

 dense (Dense)               (None, 128)               8320

 dense_1 (Dense)             (None, 10)                1290

=================================================================
Total params: 32,906
Trainable params: 32,906
Non-trainable params: 0
_________________________________________________________________
Epoch 1/50
25/25 [==============================] - 1s 8ms/step - loss: 2.2260 - accuracy: 0.1790 - val_loss: 2.9839 - val_accuracy: 0.0000e+00
Epoch 2/50
25/25 [==============================] - 0s 3ms/step - loss: 1.9505 - accuracy: 0.2165 - val_loss: 6.0252 - val_accuracy: 0.0000e+00
…
