…
    tf.keras.layers.Dense(len(class_names), activation='softmax')
])

--------------

이 모델은 Conv2D 레이어의 필터 개수를 16에서 32, 32에서 64, 64에서 128로 늘리고, Dense 레이어의 개수를 1개에서 2개로 늘렸습니다. 또한, 두 번째 Dense 레이어 뒤에 Dropout 레이어를 추가하여 overfitting을 방지하도록 했습니다.

--------------
출력 결과
--------------

C:\Users\JIEUN\Desktop\jieun>C:/Users/JIEUN/AppData/Local/Programs/Python/Python39/python.exe c:/Users/JIEUN/Desktop/jieun/230411kimjieun.py
Model: "sequential"
_________________________________________________________________
 Layer (type)                Output Shape              Param #
=================================================================
 reshape (Reshape)           (None, 13, 1, 1)          0

 conv2d (Conv2D)             (None, 13, 1, 32)         320

 max_pooling2d (MaxPooling2D  (None, 6, 1, 32)         0
 )

 conv2d_1 (Conv2D)           (None, 6, 1, 64)          18496

 max_pooling2d_1 (MaxPooling  (None, 3, 1, 64)         0
 2D)

 conv2d_2 (Conv2D)           (None, 3, 1, 128)         73856

 max_pooling2d_2 (MaxPooling  (None, 1, 1, 128)        0
 2D)

 flatten (Flatten)           (None, 128)               0

 dense (Dense)               (None, 256)               33024

 dropout (Dropout)           (None, 256)               0

 dense_1 (Dense)             (None, 128)               32896

 dense_2 (Dense)             (None, 10)                1290

=================================================================
Total params: 159,882
Trainable params: 159,882
Non-trainable params: 0
_________________________________________________________________
Epoch 1/50
25/25 [==============================] - 1s 10ms/step - loss: 2.1553 - accuracy: 0.1289 - val_loss: 4.2575 - val_accuracy: 0.0000e+00
Epoch 2/50
25/25 [==============================] - 0s 4ms/step - loss: 1.8173 - accuracy: 0.2716 - val_loss: 7.7013 - val_accuracy: 0.0000e+00
…
