…
validation_split은 학습 데이터에서 일부를 검증 데이터(validation data)로 분리하는 비율을 나타내는 값입니다. 예를 들어 validation_split=0.2인 경우, 학습 데이터 중 20%를 검증 데이터로 사용하고, 나머지 80%를 모델 학습에 사용합니다. 검증 데이터는 모델이 학습 중에 성능을 평가하고, 과적합(overfitting)을 방지하기 위해 사용됩니다. 검증 데이터는 학습 데이터와는 달리 모델이 이전에 본 적이 없는 데이터로, 모델이 잘 일반화되어 있는지 확인하는 데 도움을 줍니다. 검증 데이터를 사용해 모델의 성능을 모니터링하면서 학습을 중지할 시점을 결정할 수도 있습니다.

제출 코드에서는 model.fit() 함수에서 validation_split=0.2를 설정하여 학습 데이터 중 20%를 검증 데이터로 사용하도록 지정했습니다. 따라서 총 학습 데이터 중 80%를 학습에 사용하고, 20%를 검증에 사용하여 모델의 성능을 평가합니다.

--------------


C:\Users\JIEUN\Desktop\jieun>C:/Users/JIEUN/AppData/Local/Programs/Python/Python39/python.exe c:/Users/JIEUN/Desktop/jieun/230411kimjieun.py
Model: "sequential"
_________________________________________________________________
 Layer (type)                Output Shape              Param #
=================================================================
 reshape (Reshape)           (None, 13, 1, 1)          0

 conv2d (Conv2D)             (None, 13, 1, 16)         160

 max_pooling2d (MaxPooling2D  (None, 6, 1, 16)         0
 )

 conv2d_1 (Conv2D)           (None, 6, 1, 32)          4640

 max_pooling2d_1 (MaxPooling  (None, 3, 1, 32)         0
 2D)

 conv2d_2 (Conv2D)           (None, 3, 1, 64)          18496

 max_pooling2d_2 (MaxPooling  (None, 1, 1, 64)         0
 2D)

 flatten (Flatten)           (None, 64)                0

 dense (Dense)               (None, 128)               8320

 dense_1 (Dense)             (None, 10)                1290

=================================================================
Total params: 32,906
Trainable params: 32,906
Non-trainable params: 0
_________________________________________________________________
Epoch 1/50
29/29 [==============================] - 1s 8ms/step - loss: 2.2487 - accuracy: 0.1980 - val_loss: 2.9413 - val_accuracy: 0.0000e+00
Epoch 2/50
29/29 [==============================] - 0s 3ms/step - loss: 2.0557 - accuracy: 0.2169 - val_loss: 4.5696 - val_accuracy: 0.0000e+00
…
